…
4\u200b\u901a\u9053\u200b\u6570\u200b 224: \u200b\u56fe\u7247\u200b\u7684\u200b\u9ad8\u200b\u5bbd\u200b\n</code></pre> <ul> <li>torchinfo\u200b\u7684\u200b\u7ed3\u6784\u5316\u200b\u8f93\u51fa\u200b</li> </ul> <pre><code>=========================================================================================\nLayer (type:depth-idx)                   Output Shape              Param #\n=========================================================================================\nResNet                                   --                        --\n\u251c\u2500Conv2d: 1-1                            [1, 64, 112, 112]         9,408\n\u251c\u2500BatchNorm2d: 1-2                       [1, 64, 112, 112]         128\n\u251c\u2500ReLU: 1-3                              [1, 64, 112, 112]         --\n\u251c\u2500MaxPool2d: 1-4                         [1, 64, 56, 56]           --\n\u251c\u2500Sequential: 1-5                        [1, 64, 56, 56]           --\n\u2502    \u2514\u2500BasicBlock: 2-1                   [1, 64, 56, 56]           --\n\u2502    \u2502    \u2514\u2500Conv2d: 3-1                  [1, 64, 56, 56]           36,864\n\u2502    \u2502    \u2514\u2500BatchNorm2d: 3-2             [1, 64, 56, 56]           128\n\u2502    \u2502    \u2514\u2500ReLU: 3-3                    [1, 64, 56, 56]           --\n\u2502    \u2502    \u2514\u2500Conv2d: 3-4                  [1, 64, 56, 56]           36,864\n\u2502    \u2502    \u2514\u2500BatchNorm2d: 3-5             [1, 64, 56, 56]           128\n\u2502    \u2502    \u2514\u2500ReLU: 3-6                    [1, 64, 56, 56]           --\n\u2502    \u2514\u2500BasicBlock: 2-2                   [1, 64, 56, 56]           --\n\u2502    \u2502    \u2514\u2500Conv2d: 3-7                  [1, 64, 56, 56]           36,864\n\u2502    \u2502    \u2514\u2500BatchNorm2d: 3-8             [1, 64, 56, 56]           128\n\u2502    \u2502    \u2514\u2500ReLU: 3-9                    [1, 64, 56, 56]           --\n\u2502    \u2502    \u2514\u2500Conv2d: 3-10                 [1, 64, 56, 56]           36,864\n\u2502    \u2502    \u2514\u2500BatchNorm2d: 3-11            [1, 64, 56, 56]           128\n\u2502    \u2502    \u2514\u2500ReLU: 3-12                   [1, 64, 56, 56]           --\n\u251c\u2500Sequential: 1-6                        [1, 128, 28, 28]          --\n\u2502    \u2514\u2500BasicBlock: 2-3                   [1, 128, 28, 28]          --\n\u2502    \u2502    \u2514\u2500Conv2d: 3-13                 [1, 128, 28, 28]          73,728\n\u2502    \u2502    \u2514\u2500BatchNorm2d: 3-14            [1, 128, 28, 28]          256\n\u2502    \u2502    \u2514\u2500ReLU: 3-15                   [1, 128, 28, 28]          --\n\u2502    \u2502    \u2514\u2500Conv2d: 3-16                 [1, 128, 28, 28]          147,456\n\u2502    \u2502    \u2514\u2500BatchNorm2d: 3-17            [1, 128, 28, 28]          256\n\u2502    \u2502    \u2514\u2500Sequential: 3-18             [1, 128, 28, 28]          8,448\n\u2502    \u2502    \u2514\u2500ReLU: 3-19                   [1, 128, 28, 28]          --\n\u2502    \u2514\u2500BasicBlock: 2-4                   [1, 128, 28, 28]          --\n\u2502    \u2502    \u2514\u2500Conv2d: 3-20                 [1, 128, 28, 28]          147,456\n\u2502    \u2502    \u2514\u2500BatchNorm2d: 3-21            [1, 128, 28, 28]          256\n\u2502    \u2502    \u2514\u2500ReLU: 3-22                   [1, 128, 28, 28]          --\n\u2502    \u2502    \u2514\u2500Conv2d: 3-23                 [1, 128, 28, 28]          147,456\n\u2502    \u2502    \u2514\u2500BatchNorm2d: 3-24            [1, 128, 28, 28]          256\n\u2502    \u2502    \u2514\u2500ReLU: 3-25                   [1, 128, 28, 28]          --\n\u251c\u2500Sequential: 1-7                        [1, 256, 14, 14]          --\n\u2502    \u2514\u2500BasicBlock: 2-5                   [1, 256, 14, 14]          --\n\u2502    \u2502    \u2514\u2500Conv2d: 3-26                 [1, 256, 14, 14]          294,912\n\u2502    \u2502    \u2514\u2500BatchNorm2d: 3-27            [1, 256, 14, 14]          512\n\u2502    \u2502    \u2514\u2500ReLU: 3-28                   [1, 256, 14, 14]          --\n\u2502    \u2502    \u2514\u2500Conv2d: 3-29                 [1, 256, 14, 14]          589,824\n\u2502    \u2502    \u2514\u2500BatchNorm2d: 3-30            [1, 256, 14, 14]          512\n\u2502    \u2502    \u2514\u2500Sequential: 3-31             [1, 256, 14, 14]          33,280\n\u2502    \u2502    \u2514\u2500ReLU: 3-32                   [1, 256, 14, 14]          --\n\u2502    \u2514\u2500BasicBlock: 2-6                   [1, 256, 14, 14]          --\n\u2502    \u2502    \u2514\u2500Conv2d: 3-33                 [1, 256, 14, 14]          589,824\n\u2502    \u2502    \u2514\u2500BatchNorm2d: 3-34            [1, 256, 14, 14]          512\n\u2502    \u2502    \u2514\u2500ReLU: 3-35                   [1, 256, 14, 14]          --\n\u2502    \u2502    \u2514\u2500Conv2d: 3-36                 [1, 256, 14, 14]          589,824\n\u2502    \u2502    \u2514\u2500BatchNorm2d: 3-37            [1, 256, 14, 14]          512\n\u2502    \u2502    \u2514\u2500ReLU: 3-38                   [1, 256, 14, 14]          --\n\u251c\u2500Sequential: 1-8                        [1, 512, 7, 7]            --\n\u2502    \u2514\u2500BasicBlock: 2-7                   [1, 512, 7, 7]            --\n\u2502    \u2502    \u2514\u2500Conv2d: 3-39                 [1, 512, 7, 7]            1,179,648\n\u2502    \u2502    \u2514\u2500BatchNorm2d: 3-40            [1, 512, 7, 7]            1,024\n\u2502    \u2502    \u2514\u2500ReLU: 3-41                   [1, 512, 7, 7]            --\n\u2502    \u2502    \u2514\u2500Conv2d: 3-42                 [1, 512, 7, 7]            2,359,296\n\u2502    \u2502    \u2514\u2500BatchNorm2d: 3-43            [1, 512, 7, 7]            1,024\n\u2502    \u2502    \u2514\u2500Sequential: 3-44             [1, 512, 7, 7]            132,096\n\u2502    \u2502    \u2514\u2500ReLU: 3-45                   [1, 512, 7, 7]            --\n\u2502    \u2514\u2500BasicBlock: 2-8                   [1, 512, 7, 7]            --\n\u2502    \u2502    \u2514\u2500Conv2d: 3-46                 [1, 512, 7, 7]            2,359,296\n\u2502    \u2502    \u2514\u2500BatchNorm2d: 3-47            [1, 512, 7, 7]            1,024\n\u2502    \u2502    \u2514\u2500ReLU: 3-48                   [1, 512, 7, 7]            --\n\u2502    \u2502    \u2514\u2500Conv2d: 3-49                 [1, 512, 7, 7]            2,359,296\n\u2502    \u2502    \u2514\u2500BatchNorm2d: 3-50            [1, 512, 7, 7]            1,024\n\u2502    \u2502    \u2514\u2500ReLU: 3-51                   [1, 512, 7, 7]            --\n\u251c\u2500AdaptiveAvgPool2d: 1-9                 [1, 512, 1, 1]            --\n\u251c\u2500Linear: 1-10                           [1, 1000]                 513,000\n=========================================================================================\nTotal params: 11,689,512\nTrainable params: 11,689,512\nNon-trainable params: 0\nTotal mult-adds (G): 1.81\n=========================================================================================\nInput size (MB): 0.60\nForward/backward pass size (MB): 39.75\nParams size (MB): 46.76\nEstimated Total Size
…
